pth/gcn_epoch50.pth (torch, 94320 bytes, 4 tensors)

gc1.weight f4 [1433, 16]
000000 42 ac 9d bd 83 c3 89 3e 62 34 83 3e 13 25 57 bd
       -0.07698871 0.26906976 0.25625902 -0.05252559
000010 8f 9a 5a bd c7 71 36 be 51 47 a4 3d 8b 60 f4 3d
       -0.053370055 -0.1781684 0.08021415 0.119324766
000020 54 45 95 bd e6 dc c1 3d 49 9b 5c 3d da 97 9d 3d
       -0.07288614 0.09465961 0.05385903 0.07694979
000030 80 13 04 bc 2f 02 be 3d f1 56 59 3e eb 31 2a 3e
       -0.00806129 0.0927776 0.21224572 0.16620605
000040 29 d0 89 3d 0d e3 14 3e c3 0e 9b 3d 6e a8 4f 3e
       0.067291565 0.14539738 0.07571175 0.20279095
000050 8b 94 f4 3d 57 55 1c be ec ba 35 be 6d b0 dc 3d
       0.11942395 -0.1526693 -0.17747086 0.10775838
000060 2c b7 39 3c e1 19 a8 3e 4b de f1 bc 10 fc 9a 3e
       0.0113351755 0.32832244 -0.029524943 0.30270433
000070 94 70 1d 3e 9e 08 18 3e 28 6e 66 3d af 28 ae 3c
       0.15374976 0.14847037 0.056257397 0.021259634
000080 51 db f3 3d 55 8a 18 3e d8 6c 1e bd d2 54 7d be
       0.11907066 0.1489652 -0.03867802 -0.24739388
000090 e2 76 ad 3e bb 15 ab 3e a4 64 8d 3e c7 65 58 be
       0.33879763 0.33415017 0.27615845 -0.21132575
0000a0 96 cb 87 3e 2f 80 0f bd f0 b3 d8 3d cc b4 06 be
       0.2652251 -0.035034355 0.10581195 -0.13154906
0000b0 fd 2e 0a be ed 29 0b 3e c5 c1 39 3e b4 88 08 3e
       -0.13494487 0.13590212 0.18140323 0.13333398
0000c0 8c 77 17 3e 81 a2 a3 be c3 58 0f be 24 e6 91 3e
       0.14791697 -0.31959918 -0.13998704 0.28495896
0000d0 51 70 8b bd 3a 33 03 be 50 53 71 bd 32 57 37 3e
       -0.06808532 -0.1281251 -0.058917344 0.17904356
0000e0 a0 ef 2c 3c a3 14 33 3e ac c0 10 3e b1 64 3b be
       0.010555178 0.17488341 0.14135998 -0.1830013
0000f0 f5 2c fa 3c a6 65 5d be ec c5 c2 3d 5c 0b 02 bc
       0.030539015 -0.21620807 0.09510407 -0.007937279
000100 af 93 36 be a4 89 d9 3e c6 55 bf bd 8e 2d aa bd
       -0.17829774 0.42487824 -0.09342532 -0.0830947
000110 84 25 b1 3e 17 48 c1 3e 3f 12 2c bc 54 2b 11 be
       0.34598935 0.37750313 -0.010502397 -0.14176685
000120 c7 a6 5b be c0 e2 6b 3e 7b 83 57 be c3 4c c5 3e
       -0.2145034 0.23035717 -0.2104625 0.38535127
000130 dc 33 27 3e 16 a4 07 3f d5 fd e9 3e ff ab 54 bd
       0.16328377 0.5298475 0.4570147 -0.05192184
000140 a1 06 20 3e 99 de f9 3d 42 1d 47 3c c9 7e cc 3e
       0.15627529 0.1220066 0.012152972 0.3994048
000150 c0 f2 e8 bc 85 86 f5 3d 59 7a 55 be 79 e9 b8 3b
       -0.028436065 0.11988548 -0.20847453 0.0056430665
000160 cc bd e2 3d de 89 62 3c 4c 6c 20 3c d2 85 14 bd
       0.11071357 0.013826815 0.009791445 -0.036260433
000170 4c ae 94 bb 69 cc 49 3c 8a cd a8 bd 57 3f f9 bd
       -0.0045373794 0.012316802 -0.082423285 -0.12170284
000180 61 19 19 3e 05 18 91 bd f6 3a ba 3e 00 d0 e0 3d
       0.14951088 -0.070846595 0.3637311 0.10977173
000190 9f b8 a5 bd 89 f5 31 be 5f 75 e6 bd 72 3e 77 be
       -0.08091854 -0.1737882 -0.112528555 -0.24144915
0001a0 61 50 77 3e 35 dc ac be 3d 06 cd 3d 92 e6 16 3e
       0.24151756 -0.33761755 0.100109555 0.14736393
0001b0 e7 d2 bb 3d aa ff 27 be 43 72 7b bd 5c e8 ad 3d
       0.09171086 -0.16406122 -0.061388265 0.08491585
0001c0 c5 c1 94 3e 65 61 91 bd 11 57 ff 3d 0d 45 39 3e
       0.29054084 -0.07098655 0.124677785 0.18092747
0001d0 42 bc 0e be 8d 7c 8e be 2a f3 4a be e9 05 d0 bc
       -0.13939002 -0.278294 -0.19819322 -0.025393443
0001e0 38 33 0a bd 70 1a e7 3e d8 f6 ae 3d 63 58 d9 3d
       -0.033740252 0.45137358 0.085431755 0.106125616
0001f0 04 06 1c 3d 4a 3f 59 be e1 85 0f bd 14 c5 78 3c
       0.038091674 -0.21215549 -0.035039786 0.015183706
000200 c8 3a db 3d f3 8e 05 3e dc 5b f2 bd 1c 8d bf 3e
       0.10704571 0.13042812 -0.11833927 0.37412345
000210 0a 18 61 3d 63 95 1e 3e 70 b2 18 be 11 0d 5d 3d
       0.054954566 0.15486674 -0.14911819 0.05396754
000220 f3 34 1b 3e 7e 78 31 be ff b3 07 be 85 4a 8e 3d
       0.15156917 -0.1733112 -0.13252257 0.06947807
000230 bd c3 2b be 24 3a d4 3d 13 61 9a bd a0 96 e7 bc
       -0.16773887 0.10362652 -0.07538047 -0.028270066
000240 c1 84 5a 3d 82 fb 9f 3d c0 3d 66 ba 4d 19 66 3d
       0.05334926 0.07811643 -0.0008783005 0.056176472
000250 02 34 38 bc 12 d5 0d 3e 8f e3 c1 bc 9b e0 65 bc
       -0.011242868 0.13850811 -0.023668079 -0.014030601
000260 71 c2 8a 3c 84 61 d8 bd 2f 16 f1 bd db 6c e5 bd
       0.01693842 -0.10565475 -0.11771809 -0.11202403
000270 84 b5 0c 3d b8 df ef bb e8 eb 47 bd 01 73 92 bd
       0.034352794 -0.0073203705 -0.048808962 -0.071508415
000280 85 80 1a 3e 51 e9 cd 3d 29 fb e4 3c c1 0f fd 3e
       0.15088089 0.10054267 0.027951794 0.49426082
000290 d3 cb ee bd e8 ff 8d 3c ac 0a 2e be 5a 63 5a 3e
       -0.1165997 0.01733394 -0.16996258 0.21326962
0002a0 0e b8 99 3d ed 6d b6 3c 3f 9b f2 3c 81 27 b7 3c
       0.07505809 0.022269214 0.029615043 0.022357704
0002b0 e7 91 1d 3d 47 fe 18 be 84 d8 41 be d1 ea 05 be
       0.03846922 -0.14940749 -0.1893025 -0.13077857
0002c0 63 9b 27 be 03 5e 72 3e b4 0d ba 3c 26 03 62 be
       -0.16367869 0.23668675 0.022711612 -0.22071514
0002d0 a5 66 53 3c 18 25 cf bc 83 4c 8f 3e 98 c9 7c 3d
       0.01290289 -0.025286242 0.2798806 0.061715692
0002e0 0d 8c 16 be 85 ef 8a 3d d9 5a fb bd 4f 75 0e bd
       -0.14701863 0.06783966 -0.12273187 -0.034779843
0002f0 f9 6a 40 3c 11 cc 13 bb 4a e7 92 3e e2 d4 74 3c
       0.011744254 -0.0022552053 0.28692085 0.014943333
000300 52 e8 16 be b0 35 89 3e 1c bc 4a 3e e1 bc b0 bd
       -0.1473706 0.26798773 0.1979832 -0.08629776
000310 9c 9f 6d 3e 7e 20 81 bc ee 46 09 3e 0d b4 1a be
       0.23205417 -0.015762564 0.13405964 -0.15107746
000320 a8 ce 97 3e 81 87 f8 bb 17 85 00 be 5b 98 1c 3e
       0.29649854 -0.0075845127 -0.1255077 0.15292494
000330 93 10 be 3d 33 25 3e 3e 45 57 e9 bc b0 82 26 3e
       0.09280505 0.18568878 -0.028483996 0.16260791
000340 5b 72 b2 3d 79 db 15 3e c4 b9 e4 bd c9 69 c6 3e
       0.08713218 0.14634503 -0.111682445 0.38752583
000350 ad 13 42 be 2a 78 0c bd 5d d2 5a bd cb 71 a3 3e
       -0.18952818 -0.034294285 -0.053423274 0.31922755
000360 f8 15 91 3c 0d 24 b0 3a 51 2c 62 bd 4f 1b ba 3d
       0.01771067 0.0013438478 -0.055218045 0.0908724
000370 c7 5d 03 3d 88 69 a7 bd 44 42 18 be 9a e6 e2 bc
       0.032071855 -0.08174425 -0.14869028 -0.02769785
000380 22 05 cb bd 39 67 ce bd 4b 5c 69 bd 20 c2 19 be
       -0.099130884 -0.10078282 -0.056972783 -0.15015459
000390 dc 77 50 bc 8c 4c 95 bd 84 c8 59 3e 53 a6 9e 3d
       -0.012723889 -0.07289991 0.21267897 0.077465676
0003a0 2d f3 a9 bd 7e 20 1d bd fc 43 a7 3c b6 84 17 be
       -0.08298335 -0.038361065 0.02041816 -0.14796719
0003b0 31 37 79 bc cc 73 54 bd e4 d7 28 3e 78 de 6a 3e
       -0.015210913 -0.051868245 0.16488606 0.22936428
0003c0 f1 79 98 3c 7b 75 9c bb 91 f7 87 bc a4 02 44 bd
       0.018612834 -0.004774747 -0.016597541 -0.04785408
0003d0 04 de af ba 51 59 8f 3c d2 a7 89 3d 19 f2 80 3c
       -0.0013417606 0.017498644 0.06721462 0.015740441
0003e0 2c 5d 12 bc d7 d0 26 bd 07 1f e9 bb ea 24 85 bd
       -0.008933347 -0.04072651 -0.0071142945 -0.065011814
0003f0 67 a3 9d 3c 2f 52 9f bc 5b 52 6f 3d 50 3b 55 3d
       0.019242955 -0.019448368 0.05842815 0.052058518

gc1.bias f4 [16]
000000 fa e1 91 3e 25 42 3e 3e 34 9a 2f 3b d8 09 d9 3e
       0.2849272 0.1857992 0.0026794793 0.42390323
000010 19 42 33 3e 29 e5 6e 3e 73 62 bc bc 74 3f 96 3e
       0.17505683 0.23329605 -0.022996163 0.29345286
000020 ce 80 52 3e 61 94 03 bd bc f6 0a be de ce 24 3e
       0.20556948 -0.032123927 -0.13570684 0.16094539
000030 58 14 c9 3c f0 e8 cd bc ca 47 88 3e 3f 6f 83 3e
       0.024545833 -0.025135487 0.2661727 0.25670812

gc2.weight f4 [16, 7]
000000 97 7a c9 be 46 a1 0c 3e 06 73 d3 3e e8 61 e7 be
       -0.3935134 0.13733396 0.41298693 -0.45191884
000010 31 33 c1 3e 52 d5 e9 be 40 1d e0 3e 5a bf aa 3e
       0.37734368 -0.45670563 0.43772316 0.33349115
000020 d9 8b 39 bf d7 2d 9b 3e ec d5 1c 3e bb f0 1b bf
       -0.72479016 0.3030841 0.1531598 -0.609142
000030 3a 62 3d 3b f0 75 ee be 15 c2 ae be 85 82 2a 3f
       0.002889766 -0.46574354 -0.34132448 0.66605407
000040 a3 8e be 3e 3e 43 e3 3e 2a f2 1a bf 72 e8 8b 3e
       0.37218198 0.4438724 -0.60525763 0.2732578
000050 75 63 fe bd 57 66 25 bf 50 e7 55 3e 09 6c 1f 3f
       -0.12421314 -0.64609283 0.2088902 0.62274224
000060 8d 99 a6 be 37 65 80 3e 26 1e f5 be ed dc 36 bf
       -0.32539025 0.2507722 -0.47874564 -0.71430856
000070 0f ab d3 3e dd c4 b1 be 46 3f f1 be ed 9c ad be
       0.41341445 -0.34720507 -0.47118586 -0.33908787
000080 37 6c e6 be 67 c2 e3 3e 81 d9 93 3e 8b f9 8c 3e
       -0.45004436 0.44484255 0.2887688 0.27534136
000090 cb b4 08 bf 26 ef 9b 3e 31 ce 00 bf e1 3c 0b bf
       -0.5340087 0.30455893 -0.50314623 -0.5438977
0000a0 ee 3e 39 bf a6 e2 0c 3f 2c c9 7f be 58 45 f6 be
       -0.7236165 0.5503334 -0.24979085 -0.4809978
0000b0 86 56 b3 be 5b 10 3b 3f 10 8d fe bd f5 3d 33 3d
       -0.3502695 0.7307183 -0.12429249 0.04376026
0000c0 9b ef fb 3e 91 ce c6 be f1 39 cb be a7 90 ce 3e
       0.49206242 -0.38829473 -0.39692643 0.40344736
0000d0 c8 e3 0a 3f 04 12 99 3e 25 95 22 be eb 50 99 be
       0.54253817 0.29896557 -0.15877207 -0.29944548
0000e0 bc 3e a1 be 8d b8 8c 3e 59 75 25 3e 01 77 14 bf
       -0.31493175 0.2748455 0.16158046 -0.57994086
0000f0 ab f0 16 bf 9a 9e 0a 3e 60 40 86 3e 03 de 96 3e
       -0.5896098 0.13537064 0.2622099 0.29466256
000100 c5 3c 0b bf e9 cd b5 be fd 93 99 be 01 0f 15 3f
       -0.543896 -0.3550866 -0.2999572 0.5822602
000110 bb 49 b3 3c 34 fd 14 bf b9 4a 52 bf 5b be b3 3e
       0.021885743 -0.5819886 -0.8214527 0.35106167
000120 66 ca 03 bf 4e a9 12 bf 8b 14 01 3f 98 0c 5d 3e
       -0.5148071 -0.5728959 0.5042197 0.21586835
000130 45 f6 80 3e 63 b3 9d 3e d0 10 d9 3e 96 cc 1e bf
       0.2518789 0.30800924 0.4239564 -0.62030923
000140 49 75 f4 be a7 51 83 3e 8c b6 d9 3e 61 df 1c bf
       -0.4774573 0.25648233 0.42522085 -0.6127835
000150 4a 40 18 3e d5 d7 cd 3e ff 1d b5 be 74 e6 a6 be
       0.14868274 0.4020373 -0.35374448 -0.32597697
000160 b8 62 16 bf b2 56 25 be e0 7f 57 3e 85 6e 8d 3e
       -0.5874438 -0.16146353 0.21044874 0.27623382
000170 4d 11 08 bf 15 c7 a0 be e8 cf 84 be 09 e8 cf be
       -0.531514 -0.31401888 -0.2593987 -0.40606716
000180 1c fc de 3e 6e 7c 74 bd f2 bd 1d 3f dc 1a e2 be
       0.4355172 -0.059688978 0.6161796 -0.44161117
000190 5a b9 12 bf 16 28 fe 3e d7 db f8 3e 4d 2f 17 bf
       -0.57314074 0.49639958 0.48605224 -0.5905655
0001a0 89 05 f1 3e 10 e7 35 be d2 44 af 3e 93 10 f2 be
       0.47074535 -0.17763925 0.34232193 -0.4727827
0001b0 37 c6 28 3f 2f 09 43 3d ee e6 9e 3e 42 72 da 3e
       0.6592745 0.04761618 0.3103556 0.42665297

gc2.bias f4 [7]
000000 96 7e 11 3e 2f 2e 28 3e 4c 68 e2 3e 4f 1b 67 3e
       0.14208445 0.16423868 0.44220197 0.22569011
000010 b0 40 cb 3e 28 8e 15 3e 11 35 86 3d
       0.3969779 0.1460501 0.0655309
