pth/gcn_epoch200.pth (torch, 94328 bytes, 4 tensors)

gc1.weight f4 [1433, 16]
000000 46 47 c1 bd 89 34 0b 3e 59 ec c1 3d 5a 8c 33 bd
       -0.094374225 0.1359426 0.09468908 -0.04383502
000010 62 e8 7d bd e5 be 17 be a4 0c a1 3a 80 d0 93 3d
       -0.061989196 -0.14818914 0.0012287092 0.072175026
000020 15 44 7e bd a5 d2 cc bc 6b d8 c2 bd 8a 3f 24 bc
       -0.062076647 -0.025002787 -0.09513935 -0.0100249145
000030 e2 b9 5f bd fe f8 81 3c de 6d 4d 3c aa 94 e4 3c
       -0.05462063 0.015865799 0.012538401 0.02790292
000040 57 58 00 3d 6d 74 d3 3d 89 d8 c3 3d 7c 56 78 3d
       0.031334247 0.10324941 0.09562785 0.060629353
000050 d4 87 10 3d 9e d5 e1 bb af 2f b1 bd 61 b5 58 3d
       0.035285786 -0.00689192 -0.08651673 0.05290735
000060 6c f3 2e 3b 5e ed 7c 3d 12 42 b6 bd e2 bd 11 3d
       0.0026695384 0.06174981 -0.08899321 0.035581477
000070 ff 17 85 3d 0f 1c 66 3d 75 93 e5 bd e8 a6 bd bd
       0.064987175 0.056179103 -0.11209766 -0.092603505
000080 54 93 91 bd 8f 00 6a 3c 46 8b be bd 88 f3 4c be
       -0.07108179 0.01428236 -0.09303908 -0.20014775
000090 0e ac 3a 3e 06 84 0a 3e 3a 98 a2 3e fe 30 01 be
       0.18229696 0.13526925 0.31756765 -0.12616345
0000a0 d4 2a be bd e8 51 7f bd 4e d9 cc bb 05 85 a0 bd
       -0.092855126 -0.06233397 -0.0062514907 -0.078378715
0000b0 05 b8 f3 3d 18 bd 7a 3d 86 11 3f 3e 11 dc 4f 3e
       0.11900333 0.06121549 0.18659028 0.20298792
0000c0 dd aa ed 3d c6 e9 cf bd 87 db ca bd 60 81 03 3e
       0.11604855 -0.101520106 -0.09905153 0.12842321
0000d0 bd 38 d6 bd e6 ac 46 bd b9 65 1a bd 9d 00 2a 3e
       -0.10460041 -0.048504733 -0.037694667 0.16601796
0000e0 28 46 80 bc b2 7f e5 3d 6e f0 99 3d 35 6f e8 3b
       -0.015658453 0.112059966 0.075165614 0.007093335
0000f0 19 d5 01 be f8 d6 5a bd 92 13 d5 3d a3 eb cc bc
       -0.12678947 -0.053427666 0.10404123 -0.025014704
000100 07 d9 70 be af f0 dc 3e 50 37 26 be ae fc 19 be
       -0.2352029 0.43152377 -0.16232038 -0.15037796
000110 36 d5 c8 3e ff 8d ac 3e 6f f0 12 be 13 c1 51 be
       0.39225167 0.33702084 -0.1434953 -0.20483808
000120 1c da 86 be f6 72 be 3e 63 40 81 be a0 f5 b5 3e
       -0.2633828 0.37197083 -0.25244436 0.3553896
000130 f6 c4 0c 3f 00 05 f1 3e 09 8d fe 3e b4 20 07 be
       0.5498804 0.47074127 0.49716976 -0.13196069
000140 16 ba 4f 3d 88 9a 23 3d 2f 45 ba bc 97 d9 78 3d
       0.050714575 0.039942294 -0.022738067 0.060754385
000150 25 4e 94 b9 ce d1 10 3d f4 a4 93 bd a8 7e 13 3c
       -0.00028286982 0.035356335 -0.07209197 0.009002365
000160 bf 08 a4 3d 20 42 bb 3c 46 c9 ad 3b 82 e6 dc 3c
       0.08009481 0.02285868 0.0053035347 0.026965383
000170 59 99 1e bd d1 bd c2 3c 19 65 97 bd 6c 24 a8 bd
       -0.038720462 0.023772152 -0.0739233 -0.08210072
000180 8c 42 b4 bc 08 22 94 bc ae e2 0a 3e c3 35 91 3d
       -0.022004388 -0.018082634 0.13563034 0.07090332
000190 ab dd db bc e5 d4 52 bc 6c 28 fc bc cd e5 a5 bd
       -0.026839098 -0.012868141 -0.030780993 -0.08100472
0001a0 5c a9 8a 3d c0 a5 83 bd 41 77 b8 3b 4d 5b 8b 3d
       0.06770584 -0.06428099 0.0056294505 0.068045236
0001b0 68 06 3e 3e ae 76 b4 bc 69 b5 38 bd 9c 4b 30 3d
       0.18557131 -0.022029247 -0.04509488 0.043040857
0001c0 39 b7 70 3d 53 2b 52 bd c7 e7 a7 3c cb 00 f0 3d
       0.058768485 -0.05131085 0.020496262 0.11718901
0001d0 87 71 8c bd b8 b5 00 bd b0 d1 cc bd 77 22 cb 3c
       -0.06857591 -0.0314233 -0.10000932 0.024796708
0001e0 4c c4 ec ba 36 a6 65 3d c2 9a 8d 3d aa ab c2 3d
       -0.0018063872 0.056066714 0.06914283 0.095053986
0001f0 23 59 3f 3c c5 bc 9f bd f6 35 f0 3b f4 46 c6 bc
       0.011678967 -0.07799677 0.0073306514 -0.024203755
000200 b9 87 dc 3d e7 b2 30 3e 1d 21 a7 bd f9 40 56 3e
       0.107680745 0.17255746 -0.08160613 0.20923223
000210 27 bc ff 3c 6c 16 81 3e 1a 7f 1e be 69 3c aa 3d
       0.031217648 0.2521242 -0.15478173 0.083123036
000220 49 32 ba 3d 4d f9 79 bb cc fb 4b be 50 d9 a3 bb
       0.090916224 -0.003814298 -0.19920272 -0.005000271
000230 53 86 8a 3c e2 92 01 bc 4b e4 d1 bd 9d 7a 07 be
       0.016909754 -0.007908555 -0.102486216 -0.13230367
000240 2c fd c3 3c a4 42 9b ba f7 b8 96 bc 8b ed 13 bc
       0.023924433 -0.0011845422 -0.018398745 -0.009028803
000250 db 88 9c 3c e7 6a 72 3d c1 d2 22 3d 8a e8 7e 3c
       0.019108227 0.05918398 0.03975177 0.015558371
000260 96 2f f2 3c f2 47 80 bd b9 01 fd bc de 03 61 bd
       0.029563706 -0.062637225 -0.03088461 -0.05493533
000270 d1 3e 4a bb e0 99 b5 3c 4a 47 12 bd 74 7e 2f bc
       -0.0030860195 0.0221681 -0.035712518 -0.010711301
000280 9d e1 0f 3e af 55 b7 3c 41 3f db bc 83 84 80 3e
       0.14050908 0.022379724 -0.02676356 0.25101098
000290 bb db 2d bd d2 42 fa 3d 86 b4 65 be e9 ae 15 3d
       -0.04244588 0.12219776 -0.22432145 0.03654376
0002a0 06 b1 d9 3d 95 34 20 3d 62 34 f5 3b 12 6f 36 3d
       0.10629468 0.039112646 0.007483051 0.04453952
0002b0 93 83 1f bd ab aa f3 bb 78 1b 29 be f2 08 5d be
       -0.03894384 -0.0074361167 -0.16514385 -0.21585444
0002c0 fa f9 1c bd fb d4 f4 3c 27 5b 77 bb 80 53 4b bd
       -0.038324334 0.029886713 -0.003774354 -0.04964018
0002d0 38 ba 2a bb 6a 8e 55 3c 4a b5 4c 3d f8 51 bf 3c
       -0.0026050936 0.013034442 0.04997758 0.023354515
0002e0 e9 cb 06 bd 21 25 26 bc b3 fa e5 bc a8 f0 dd bc
       -0.032909308 -0.010140688 -0.028073644 -0.027092293
0002f0 af 99 17 bc e1 c3 a6 3c 17 56 11 3d 63 74 33 3d
       -0.00925295 0.020357074 0.035482492 0.043812167
000300 e4 67 ec bd 16 24 5d 3e bf 76 39 3e a9 b3 7e bd
       -0.11543253 0.21595797 0.18111704 -0.062183056
000310 5c 02 c9 3d 22 64 dc 3c 20 39 d4 bc 57 a9 d0 bc
       0.09814903 0.026903216 -0.025906146 -0.025471373
000320 dd 2a a9 3d e1 71 76 3d aa f6 93 bd 0c ce af 3d
       0.08260129 0.060167197 -0.07224782 0.08584222
000330 47 25 9f 3d fa eb eb 3d f1 c4 f5 bc 7f 24 fb bc
       0.07770782 0.11519618 -0.030001136 -0.030657051
000340 2a b9 9f 3d fc 6f 38 3d b1 e9 2d 3d f1 4e 22 3e
       0.07798989 0.04502867 0.042459194 0.15850426
000350 9b 13 1b bd 1f d0 c1 3c 86 b1 2d bd 0f 79 85 3d
       -0.037860494 0.02365881 -0.042405628 0.06517231
000360 b7 5f 16 3d 95 db b4 3c 0c 76 93 3c 5c a3 3b bb
       0.036712375 0.022077361 0.018000625 -0.0028631305
000370 bf a2 1f bd 24 0b 38 bc 50 66 cd bd eb c5 3e bd
       -0.038973566 -0.011233125 -0.1002928 -0.046575468
000380 40 62 68 bd 43 d4 9a bc 31 f7 14 bd 21 8f 8a bd
       -0.056734324 -0.018900042 -0.036368553 -0.06765581
000390 f8 8b a3 bc ce 00 7d bd cb e7 0d 3c b9 a6 36 bc
       -0.019964203 -0.061768346 0.008661221 -0.011148148
0003a0 a3 a5 a1 bd 3e 1d 20 bd 1e e2 7e bc ab f6 67 bd
       -0.07892921 -0.039090388 -0.01555684 -0.056631725
0003b0 24 91 4b bb d3 68 8e 3b c8 47 c1 3b ce 5f b5 3c
       -0.0031061852 0.004345992 0.0058984496 0.02214041
0003c0 ca a8 21 3c eb ae a4 bc b3 7a 80 bc 20 00 19 bc
       0.009866903 -0.020102939 -0.015683508 -0.009338409
0003d0 79 1a 2a 3c e4 79 c0 3c 62 40 15 3d 96 a8 27 bc
       0.010382288 0.023495622 0.036438353 -0.010233065
0003e0 dc 00 cf 3b 36 8b 9c bc a8 fe 25 3c 3d 31 b7 bc
       0.006317241 -0.01910935 0.010131516 -0.022362346
0003f0 89 4b 67 3c 3b cc 26 3b 80 3f af 3c 6e 69 f4 3c
       0.01411713 0.002545132 0.021392584 0.029835429

gc1.bias f4 [16]
000000 e7 aa a8 3e 50 5a 55 3e cc d8 12 3e 5e a7 cc 3e
       0.32942888 0.20835233 0.14340514 0.3997144
000010 eb fc 50 3e a1 bc 90 3e d1 62 55 3d 1e 7e a1 3e
       0.2040898 0.28268912 0.05209619 0.31541532
000020 82 be 96 3e 27 de 05 bd 7e 38 29 bd f3 84 46 3e
       0.2944222 -0.032682564 -0.04131364 0.19386654
000030 bc 24 b5 3d 65 74 d2 3c 12 8e 8f 3e 0b c0 92 3e
       0.08844897 0.025690267 0.2803808 0.28662142

gc2.weight f4 [16, 7]
000000 ee 00 23 bf 74 74 a8 3c 92 69 1b 3f ab 8d 19 bf
       -0.63673294 0.020563342 0.6070796 -0.59981793
000010 4b 22 18 3f d9 72 48 bf 09 6a 11 3f 08 e8 c9 3e
       0.59427327 -0.78300244 0.5680242 0.39434838
000020 a4 c3 60 bf 1d ed d8 3e a9 d2 c3 3e 66 2e 42 bf
       -0.87798524 0.42368403 0.38246658 -0.7585205
000030 81 d8 19 3e 51 cf 43 bf 37 2f 53 bf 42 7e 53 3f
       0.15023996 -0.76488215 -0.8249392 0.8261453
000040 53 52 1d 3f c5 8e 66 3f 84 21 6e bf 47 8f e6 3e
       0.6145374 0.900616 -0.9301989 0.45031187
000050 5f e5 15 bf dc 07 43 bf 4b 1b 96 3e d8 0a 31 3f
       -0.5855312 -0.7618387 0.29317698 0.6915717
000060 3f f3 f7 be 14 a7 f2 3e fe 00 1b bf 28 28 5c bf
       -0.4842777 0.47393095 -0.6054839 -0.85998774
000070 76 29 1f 3f 4c 89 69 bf b8 b3 5c bf a2 f8 5c bf
       0.6217264 -0.91225123 -0.8621173 -0.86316884
000080 76 a3 5f bf 98 0e 26 3f c4 15 08 3f c9 b4 d3 3e
       -0.87358797 0.6486602 0.5315821 0.41348866
000090 0c 71 4f bf d2 4a 40 3f 97 ea 3e bf d7 62 3a bf
       -0.8103187 0.75114167 -0.74576706 -0.7280707
0000a0 54 5b 9a bf ce 1f 3a 3f 4c 4c 10 bf 7b 02 39 bf
       -1.2059121 0.7270478 -0.5636642 -0.7226941
0000b0 52 14 24 bf fc b3 72 3f 60 f0 b2 be 09 e4 73 3e
       -0.64093506 0.94805884 -0.34949017 0.23817457
0000c0 4c c6 4f 3f b1 c5 0a bf 49 c1 10 bf f2 3f 06 3f
       0.8116195 -0.54207903 -0.5654493 0.5244132
0000d0 ad cb 17 3f 52 da 07 3f 48 00 6b be f1 d3 e6 be
       0.5929516 0.53067505 -0.22949326 -0.45083573
0000e0 08 40 37 bf f1 8e c1 3e 89 14 16 3f 7d 5a 4f bf
       -0.7158208 0.37804368 0.58625084 -0.8099745
0000f0 19 18 4b bf 57 85 93 3e d1 bd d4 3e 19 25 0b 3f
       -0.79333645 0.28812668 0.41551068 0.5435348
000100 13 cd 57 bf e5 7c ca be 19 22 02 bf d9 92 43 3f
       -0.84297293 -0.39548412 -0.5083328 0.76395947
000110 40 45 7a 3e 9a de 70 bf b6 88 9d bf 3c dc ea 3e
       0.2444048 -0.94089663 -1.2307346 0.4587115
000120 42 e4 52 bf 4c 7b 36 bf ba 7b 24 3f 3c fc e8 3e
       -0.82379544 -0.71281886 0.6425129 0.4550494
000130 4e 10 cc 3e 73 0f 0f 3f be b8 04 3f d2 5d 81 bf
       0.3985619 0.5588295 0.51844394 -1.0106757
000140 77 dd 2a bf a5 40 26 3f b1 2f f0 3e 0f 35 83 bf
       -0.6674418 0.6494239 0.46911386 -1.0250567
000150 38 9a 16 3f e2 0c 8d 3f 9c 71 36 bf 77 91 0d bf
       0.5882907 1.1019557 -0.71267104 -0.55300087
000160 6b 7c 9e bf 6b 94 55 bf 29 97 0b 3f 54 33 fa 3e
       -1.2381719 -0.8342959 0.5452753 0.48867285
000170 ae cf 42 bf 9e d8 02 bf 27 3d e3 be 06 3c 2d bf
       -0.76098144 -0.5111178 -0.44382593 -0.67669713
000180 c9 3f 16 3f 3f 5b dd bc 96 5a 3a 3f 83 0b 19 bf
       0.5869108 -0.027021049 0.72794473 -0.5978319
000190 2d a9 54 bf a8 cb 3a 3f 87 08 36 3f ca b4 80 bf
       -0.8307064 0.72967005 0.7110676 -1.0055172
0001a0 e6 be 04 3f cc dc 00 bf 5d 62 01 3f 51 14 43 bf
       0.5185379 -0.5033691 0.50540715 -0.76202875
0001b0 33 4a 61 3f f1 6e 18 be ba a2 cb 3e 1b 37 1c 3f
       0.88003844 -0.14886071 0.39772588 0.61021584

gc2.bias f4 [7]
000000 f2 4d da 3d 6e 8a db 3d 64 7f fd 3e 43 97 6a 3e
       0.10659398 0.10719763 0.49511254 0.22909264
000010 f2 c1 f9 3e 7b a5 bb 3d 21 4d 63 bd
       0.4878078 0.09162422 -0.055493478
