pth/gcn_epoch150.pth (torch, 94328 bytes, 4 tensors)

gc1.weight f4 [1433, 16]
000000 10 e1 c5 bd ab 67 13 3e ff db 8e 3d 6e b0 09 bd
       -0.09662068 0.14395015 0.06975555 -0.033615522
000010 04 0b 7c bc f7 54 16 be 35 39 96 3c d4 e7 c9 3c
       -0.015383486 -0.14680849 0.018337825 0.024646677
000020 00 b6 8b bd 62 1f 6a 3d 2d 67 aa bc b2 bf 45 3d
       -0.06821823 0.057158835 -0.020801151 0.048278518
000030 25 c4 87 bc 07 f9 e9 3c d0 9f b7 bc 71 f0 2a 3d
       -0.016573021 0.028561128 -0.022415072 0.04173321
000040 65 3c 8c bc 8d 67 02 3e ee 4f 6c 3d 19 37 a8 3d
       -0.017118642 0.12734814 0.057693414 0.08213634
000050 e5 5e 21 3d 71 0d 00 bd cb 05 bb bd 03 dc 47 3d
       0.03939714 -0.03126282 -0.09131964 0.048793804
000060 53 62 73 bc b8 2a ba 3d 5f df 62 bd d0 c7 a8 3d
       -0.014854985 0.09090179 -0.055388805 0.08241236
000070 b1 fa 82 3d 70 fa 9b 3d 2b 77 8c bd 06 20 ab bd
       0.06395472 0.076161265 -0.06858667 -0.08355717
000080 3f 42 18 bd 18 bc 22 3d c7 c0 fb bd 6c 24 59 be
       -0.037172552 0.03973016 -0.12292629 -0.212053
000090 6c 96 56 3e f5 f5 31 3e 60 98 a6 3e aa 7d 06 be
       0.20955819 0.17378981 0.32538128 -0.13133875
0000a0 54 34 7d 3c 17 b9 d2 bd c5 b8 31 3d ae d9 d8 bd
       0.0154543705 -0.10289209 0.0433891 -0.10588394
0000b0 57 72 a9 3d 54 94 9d 3d 38 37 4c 3e d0 57 48 3e
       0.08273762 0.07694307 0.1994294 0.19564748
0000c0 aa 66 e9 3d 5c 87 08 be e5 e1 88 bd ab 95 25 3e
       0.11396535 -0.13332886 -0.06683711 0.16170375
0000d0 92 4e 06 be ed cc c9 bd 34 28 de bc 7a c7 27 3e
       -0.1311591 -0.098535396 -0.02711878 0.16384688
0000e0 fc ea 92 bc bd fa 07 3e d6 af a4 3d 9d 4e 80 bd
       -0.017934315 0.13279243 0.080413505 -0.06264994
0000f0 15 0b ed bd 10 13 ae bd 87 95 ea 3d ab 37 07 bd
       -0.11574379 -0.0849973 0.11454301 -0.033012073
000100 a1 68 67 be 9d 22 df 3e b9 9c 0e be d0 3f fd bd
       -0.22598507 0.43581095 -0.13926972 -0.12365687
000110 7f 91 c5 3e 1a 0d b9 3e 58 e2 ce bd 1e 97 3e be
       0.38587567 0.36142808 -0.101017654 -0.18612334
000120 53 ca 84 be e0 04 bc 3e 3d 12 7f be 48 65 b9 3e
       -0.2593561 0.3672247 -0.24909301 0.36210084
000130 c6 97 01 3f 81 fb 01 3f b6 94 fb 3e a5 16 e4 bd
       0.5062221 0.5077439 0.49136895 -0.111371316
000140 3f 8a 2a 3d 74 06 ca 3c 32 76 de ba fc f3 d4 3d
       0.041635748 0.02466128 -0.0016972481 0.10398099
000150 8b e2 6c bc a7 c4 64 3d 58 b1 ce bd e3 4d c2 3b
       -0.014458309 0.055851605 -0.100924194 0.005929695
000160 72 f2 ad 3d f5 e2 a6 3c 38 5e 9c ba c1 37 f1 3b
       0.084935084 0.020371893 -0.0011929935 0.0073613827
000170 fc 17 05 bd a0 d0 bb 39 29 af 9e bd 0d b5 c7 bd
       -0.032493576 0.00035822857 -0.07748253 -0.097513296
000180 af fc 21 bd ba 16 3e bc 35 28 3e 3e 64 d7 a7 3d
       -0.03954762 -0.011602098 0.18570025 0.081953794
000190 00 ef b2 bc 0c 0d 85 3c 65 5a ce bc f9 bf 28 bd
       -0.02184248 0.016241573 -0.025189588 -0.041198704
0001a0 73 57 8e 3d 9b 89 96 bd 10 07 82 3c 25 d4 ba 3d
       0.06950273 -0.07350465 0.015872508 0.091224946
0001b0 75 c5 25 3e d9 25 92 bc bd 44 58 bd 50 ab 45 3d
       0.16188605 -0.017840313 -0.05279993 0.04825908
0001c0 b9 5b b4 3c be c1 6f bd 4f cb 1b 3d f1 70 ec 3d
       0.022016393 -0.058534376 0.038035687 0.11544979
0001d0 13 dd d5 bd 4a 16 ac bd 72 0b fd bd 6a 99 84 3c
       -0.10442557 -0.08402689 -0.12355699 0.016186435
0001e0 4b d2 23 bd 32 85 00 3e d7 61 a3 3d 39 df f4 3d
       -0.039995473 0.1255081 0.07977646 0.11956639
0001f0 01 f7 9c 3d 26 ed a2 bd c2 55 d3 3b 46 74 10 bd
       0.076643 -0.07955389 0.006449432 -0.035267137
000200 94 c3 f5 3d 95 06 29 3e 30 af 24 bd 82 4e 7d 3e
       0.12000194 0.16506417 -0.040206134 0.2473698
000210 a3 84 e4 3a 8c ab 93 3e 79 5a 05 be 63 f2 52 3d
       0.0017434548 0.28841817 -0.13022794 0.05150069
000220 bb 38 87 3d 42 06 83 bd 4b c7 37 be 9a 85 af 3a
       0.06602617 -0.06397678 -0.17947118 0.0013391257
000230 38 c9 07 bd 08 4b 17 bd 7d b6 c8 bd 0b 0a cf bd
       -0.03315088 -0.03693679 -0.09800432 -0.101093374
000240 c3 ed bd 3c 3c 2b 00 3c d0 9c 5d bc 49 c8 d8 bc
       0.023184663 0.007822808 -0.013526157 -0.02646269
000250 98 ef 0b 3d 87 1a a7 3d 7c 48 4b 3c 1e 42 a4 39
       0.03416404 0.081593566 0.012407418 0.0003132978
000260 99 cf 42 3c 6b 9d 0e bd e1 b7 71 bd 3c ad 9f bd
       0.011890315 -0.034818094 -0.05901325 -0.07796714
000270 e9 ce 30 bb 9a d5 83 3c 2a e6 0e bd 0a a7 d9 39
       -0.0026978797 0.016093064 -0.03488747 0.0004151392
000280 e2 a4 0f 3e c1 d6 10 3d 6c 8a 45 3c 94 93 a1 3e
       0.14027742 0.035361055 0.012056928 0.31557906
000290 ff 0c b0 bd 28 fc 91 3d 37 c0 76 be db f0 71 3d
       -0.08596229 0.07128173 -0.24096762 0.05906759
0002a0 47 17 90 3d ef 9a 6d 3d ae a9 06 3d 2c 69 75 3d
       0.0703569 0.058009084 0.032876663 0.059914753
0002b0 eb ef a3 bd 4c c4 14 bd c0 eb 4c be 80 a3 55 be
       -0.08004745 -0.036320016 -0.20011806 -0.20863152
0002c0 ae 27 01 bd 8d 70 04 3d 92 92 14 3d aa c2 bc bc
       -0.031531982 0.0323339 0.036272593 -0.023042042
0002d0 d9 c7 39 bc 67 5b 25 bc 10 d6 22 3d 0c f5 47 3b
       -0.011339151 -0.010092593 0.039754927 0.003051105
0002e0 61 d9 bf bc bc 62 79 bc d3 d0 d3 bc c2 c5 a6 bc
       -0.023419084 -0.015221294 -0.025856411 -0.02035797
0002f0 9e af 96 3c 8d ed da 3b da 53 af 3c 33 78 19 3d
       0.018394288 0.0066811503 0.021402288 0.037468147
000300 f0 84 f8 bd d8 5a 86 3e fb 00 49 3e a6 e5 ea bc
       -0.12134731 0.26241183 0.1962928 -0.028673958
000310 e7 b9 b8 3d fb 58 0b bd 98 33 73 bd 3e d8 4f bd
       0.09019833 -0.034020405 -0.059375376 -0.050743334
000320 78 e9 13 ba e3 eb 7a 3d a1 e1 bc bd b0 cb 01 3e
       -0.00056423945 0.061260115 -0.09222723 0.12675357
000330 22 75 5d 3d 8d f0 13 3e 78 7d dd bc 7c e0 b8 bc
       0.054066785 0.14447232 -0.027037367 -0.02256798
000340 18 99 bc 3d f4 f9 1c 3d 04 99 65 3b 7a 21 4e 3e
       0.09208888 0.03832431 0.0035033831 0.20129958
000350 54 23 3d bd 33 4f 43 3d 1c 66 6a bc e0 cc 93 3d
       -0.04617627 0.047682952 -0.014306571 0.07216811
000360 54 5b 3a 3d 29 85 63 3c b8 b8 f5 3c 90 a3 ea 3c
       0.045497254 0.013886728 0.029995307 0.028642446
000370 93 42 79 bd d9 36 93 bd 2b 99 de bd fe 6c 44 bd
       -0.060854506 -0.07188196 -0.10869058 -0.047955506
000380 11 0a ee bc e2 30 e5 bc e4 de 28 bd 7f 08 4b bd
       -0.029057534 -0.02797741 -0.04122819 -0.04956865
000390 50 92 0c bc b0 16 d8 bc a8 55 a5 3c 9d 02 89 3c
       -0.0085798055 -0.026378006 0.020182446 0.016724879
0003a0 83 61 6a bd 03 e2 2a bd 89 71 f4 bc 35 02 8e bd
       -0.0572219 -0.041719448 -0.029839294 -0.06934015
0003b0 2a 63 d2 bc f9 69 5d bc d6 23 ce 3c be b2 c4 3c
       -0.02568205 -0.013514035 0.025163572 0.024011012
0003c0 9b 5b 53 bc fa f0 9c bc 39 dc b5 3b 42 47 6d bc
       -0.012900258 -0.019157875 0.005549934 -0.014482321
0003d0 57 6c 49 bb 4e af 9f 3b f3 cb 85 3c b1 74 f6 3b
       -0.0030734742 0.004873193 0.016332602 0.007521235
0003e0 2e 6c 43 bb a0 86 c7 bc a1 d9 83 3c 0e 35 00 bd
       -0.0029819119 -0.024356186 0.016094984 -0.031300597
0003f0 aa 36 24 3c 9d 53 d4 bb 55 61 a3 3c 74 5e c0 3c
       0.010022799 -0.006479694 0.019943872 0.023482539

gc1.bias f4 [16]
000000 4f 84 9e 3e f7 a4 50 3e 22 cd e5 3d 83 84 d0 3e
       0.30960318 0.20375429 0.112207666 0.40726098
000010 6d 2d 3f 3e f2 9b 8a 3e f2 5b f3 3c 5f e3 a0 3e
       0.18669672 0.27072102 0.029706929 0.3142347
000020 a8 f4 87 3e 78 43 1c bd 54 ab a0 bd 09 c7 3a 3e
       0.26553845 -0.03815028 -0.07845178 0.18239988
000030 47 c3 89 3d 88 ac 26 ba 44 de 92 3e 57 18 8f 3e
       0.06726699 -0.00063581066 0.286852 0.27948257

gc2.weight f4 [16, 7]
000000 66 74 13 bf bf 1f 87 3d 48 66 0e 3f fe 1e 0e bf
       -0.57599485 0.06597852 0.5562482 -0.5551604
000010 08 24 0a 3f d9 a9 35 bf f2 6d 06 3f ee de bc 3e
       0.5396123 -0.7096229 0.52511513 0.36888832
000020 97 a8 57 bf d6 d6 c2 3e 76 00 ad 3e 72 73 34 bf
       -0.8424162 0.38054532 0.33789414 -0.70488656
000030 81 65 e4 3d 17 66 2b bf bf 39 38 bf a2 a7 4a 3f
       0.11152173 -0.6695265 -0.71963114 0.7916204
000040 b2 29 08 3f af 00 4e 3f ca 21 5a bf e8 20 da 3e
       0.5318862 0.80469793 -0.8520781 0.4260323
000050 0e 54 e3 be a8 b6 3c bf be f5 8b 3e 23 8f 2b 3f
       -0.44400066 -0.7371621 0.27335924 0.67015284
000060 a4 fe d7 be 81 56 d2 3e ff f0 12 bf 01 b3 53 bf
       -0.42186463 0.41081622 -0.5739898 -0.82695013
000070 93 83 13 3f c3 92 50 bf 2d 1b 43 bf 4b f7 3d bf
       0.5762264 -0.8147394 -0.7621334 -0.74205464
000080 4e 71 4d bf 26 d1 19 3f e3 99 ef 3e d8 55 c2 3e
       -0.80251014 0.6008476 0.46797094 0.3795612
000090 de 1d 40 bf 61 a1 26 3f 07 67 2f bf e4 51 33 bf
       -0.75045574 0.65089995 -0.6851658 -0.7004683
0000a0 50 5d 8d bf 04 7f 2e 3f a2 7d fb be aa 71 2a bf
       -1.1044102 0.6816256 -0.49119288 -0.6657969
0000b0 dd 7e 0e bf e7 f4 61 3f 4e fc 91 be 88 75 2e 3e
       -0.5566233 0.88264316 -0.28512806 0.17037022
0000c0 f4 63 43 3f b9 bc 00 bf bf 0b 06 bf c3 62 00 3f
       0.7632439 -0.5028797 -0.52361673 0.501507
0000d0 3d 66 15 3f 5a 41 e8 3e 9a 6b 55 be b3 c8 d3 be
       0.5835913 0.4536236 -0.20841828 -0.4136406
0000e0 cf 71 19 bf 43 e4 b0 3e 2d 52 ec 3e cd 35 40 bf
       -0.59939283 0.3454915 0.46156445 -0.75082093
0000f0 84 f0 3e bf 7b 0e 79 3e 3a 22 ca 3e ca 67 ed 3e
       -0.7458575 0.2432193 0.39479238 0.46368247
000100 7c b1 47 bf fa f6 b0 be 4d 7d e7 be e6 ef 35 3f
       -0.78005195 -0.34563428 -0.45212784 0.7106918
000110 5a ab 32 3e 51 8d 58 bf a9 95 92 bf f1 4d ca 3e
       0.17448178 -0.8459063 -1.1451923 0.3951259
000120 b8 fe 3c bf 01 5c 2b bf e4 cb 1f 3f 63 c2 c4 3e
       -0.7382617 -0.6693726 0.6242049 0.38429555
000130 58 da bc 3e 00 63 ef 3e de 60 f7 3e 3e 7e 6d bf
       0.36885333 0.46755219 0.4831609 -0.92770755
000140 3f f1 1d bf ba 4e 14 3f 46 ab f5 3e ca 25 6c bf
       -0.6169624 0.5793263 0.47982234 -0.9224516
000150 a0 19 ed 3e 12 06 6f 3f aa ec 1b bf d8 68 03 bf
       0.46308613 0.9336864 -0.60907996 -0.51331854
000160 3e ee 8d bf c2 be 2b bf ce 0d f2 3e e8 2b e0 3e
       -1.1088331 -0.6708795 0.47276157 0.43783498
000170 44 9b 35 bf 54 f5 ed be 80 2d c7 be 3e 18 1d bf
       -0.7094004 -0.46476233 -0.389019 -0.61365116
000180 7c 66 0e 3f 06 ad 7b bd 23 f4 35 3f ec 50 0f bf
       0.5562513 -0.061444305 0.7107565 -0.5598285
000190 c2 cf 44 bf 79 bc 2b 3f 1b 2b 2c 3f d7 54 66 bf
       -0.76879513 0.6708446 0.67253274 -0.89973205
0001a0 d5 21 f7 3e ec 6d d6 be cc e9 dd 3e b2 64 2f bf
       0.48268 -0.4188074 0.43342435 -0.68513024
0001b0 46 b1 52 3f 00 a7 9c bd 53 bc c4 3e a2 38 14 3f
       0.8230175 -0.0764904 0.3842493 0.57898915

gc2.bias f4 [7]
000000 15 5d de 3d 36 40 f1 3d fb a0 f6 3e 9d 8e 68 3e
       0.10857598 0.117798254 0.48169693 0.22710653
000010 0f b4 f5 3e 47 8b ec 3d a7 ba 89 bc
       0.47988936 0.115500025 -0.016812636
