pth/gcn_epoch100.pth (torch, 94328 bytes, 4 tensors)

gc1.weight f4 [1433, 16]
0	0xbda9a5cc	-0.08283576
1	0x3e49e059	0.19714488
2	0x3dbef630	0.093243
3	0xbcaf747b	-0.021417847
4	0xbd14d229	-0.036333237
5	0xbe661a83	-0.22471051
6	0x3cfcee4d	0.03087535
7	0x3d2624de	0.040562503
8	0xbd954c0f	-0.07289898
9	0x3da7c5ea	0.08192046
10	0xbb896b8c	-0.004193729
11	0x3d2368bd	0.039894808
12	0xbdaa5bb5	-0.08318273
13	0x3cd90135	0.026489833
14	0x3d1c8cc4	0.038220182
15	0x3d827fbe	0.06372021
16	0xbbfe511e	-0.0077611348
17	0x3e2e63bf	0.17030238
18	0x3dc45583	0.095866226
19	0x3e10e242	0.1414881
20	0x3d803f24	0.06262043
21	0xbd24cd86	-0.040235065
22	0xbde1c9d8	-0.11024827
23	0x3d9252d5	0.07144705
24	0x3ce884c2	0.028383616
25	0x3e1d7abb	0.15378849
26	0xbdcc359d	-0.099711634
27	0x3e055b36	0.13023075
28	0x3db76ea1	0.08956648
29	0x3daa63ea	0.08319838
30	0xbd072256	-0.03299173
31	0xbd6194d4	-0.055073574
32	0x3d184c21	0.037181977
33	0x3daa71cd	0.08322487
34	0xbda3a435	-0.079903044
35	0xbe6efdc2	-0.23338988
36	0x3e934cac	0.28769433
37	0x3e83cc4c	0.25741804
38	0x3e991826	0.29901236
39	0xbe2c73fc	-0.1684112
40	0x3db8e1b2	0.09027423
41	0xbda27d51	-0.079340585
42	0x3c995450	0.018716961
43	0xbdbefbb9	-0.09325356
44	0xbc2fbcbd	-0.010726151
45	0x3de7ada0	0.11312413
46	0x3e426c8d	0.18986721
47	0x3e303d18	0.17210805
48	0x3e0d5954	0.13803607
49	0xbe4bf5ed	-0.19918032
50	0xbda80daa	-0.08205731
51	0x3e6a78de	0.2289767
52	0xbe1bddf3	-0.15221386
53	0xbe36ee32	-0.17864302
54	0xbd2000a2	-0.039063103
55	0x3e2fe46a	0.17176977
56	0xba58fd8d	-0.0008277528
57	0x3e23de60	0.16002798
58	0x3de878d4	0.11351171
59	0xbdd7d47f	-0.10538577
60	0xbd7998c5	-0.060936708
61	0xbde4385b	-0.111435615
62	0x3de74c3a	0.11293836
63	0xbcf218f5	-0.029552916
64	0xbe57b11a	-0.21063653
65	0x3edf12fc	0.4356917
66	0xbe101e61	-0.14074089
67	0xbddad974	-0.10686007
68	0x3ebfed05	0.3748552
69	0x3ed16170	0.4089465
70	0xbd785607	-0.060628917
71	0xbe303df0	-0.17211127
72	0xbe81c0b2	-0.25342327
73	0x3ea04c3a	0.31308156
74	0xbe79b314	-0.24384719
75	0x3ec2b0fe	0.3802566
76	0x3eddd61d	0.43327418
77	0x3f05b8c2	0.52235043
78	0x3ef92929	0.48664215
79	0xbdbcb9c6	-0.09215121
80	0x3d3e9d71	0.046536867
81	0x3d203c62	0.039120086
82	0x3d05b6ab	0.03264491
83	0x3e5b65d6	0.21425566
84	0xbbc2ea56	-0.005948345
85	0x3d8fbda6	0.070185944
86	0xbdd04a99	-0.101704784
87	0x3c8ac455	0.016939322
88	0x3db9cf89	0.09072787
89	0xbaed6602	-0.0018112066
90	0xbc46a884	-0.012125138
91	0xbb3c1f98	-0.0028705355
92	0xbd2deca2	-0.042462
93	0xb92276c0	-0.00015493762
94	0xbdc558bf	-0.096360676
95	0xbdf556b5	-0.11979429
96	0xbc11c956	-0.0088981
97	0xbc7d2126	-0.015449798
98	0x3e85676b	0.26055464
99	0x3ddb2ff0	0.10702503
100	0xbd3d5668	-0.04622498
101	0xbd360467	-0.044437792
102	0xbd478a32	-0.048715778
103	0xbd58f8b6	-0.052971564
104	0x3e1454ef	0.14485525
105	0xbe1ebb7b	-0.15501206
106	0x3d6105af	0.05493706
107	0x3e04ce99	0.12969436
108	0x3e3caa0f	0.18424247
109	0xbcf4775c	-0.029842071
110	0xbd7a6934	-0.061135486
111	0x3d721e2c	0.059110805
112	0x3d6dd2cc	0.05806236
113	0xbd835983	-0.064135574
114	0x3d63444d	0.05548506
115	0x3e1a791f	0.15085267
116	0xbe0b3629	-0.13594879
117	0xbdd2002d	-0.1025394
118	0xbda5335d	-0.080664374
119	0xbcf3539d	-0.029702956
120	0x3bdb92c8	0.0067008473
121	0x3e7590d4	0.23981029
122	0x3dc689e7	0.096942715
123	0x3decc2cf	0.11560594
124	0x3dc9b7bf	0.098495
125	0xbdbffa66	-0.093739316
126	0xbd03f5f4	-0.03221698
127	0x36446000	2.9262155e-06
128	0x3d597a37	0.05309507
129	0x3e1d2899	0.15347518
130	0xbdb26480	-0.08710575
131	0x3e9f2ec1	0.31090358
132	0x3cd15452	0.025552902
133	0x3e6b27dd	0.22964425
134	0xbe16fc42	-0.14744666
135	0x3db9a0d9	0.090638824
136	0x3d5a5c17	0.05331048
137	0xbde215a7	-0.11039286
138	0xbe2fac4f	-0.17155574
139	0x3ccdaadc	0.025105886
140	0xbd6a9827	-0.05727401
141	0xbbb46d5a	-0.0055062
142	0xbd43409e	-0.047669046
143	0xbd74be87	-0.059752014
144	0x3cf29f9a	0.02961712
145	0x3c1359b5	0.008993556
146	0xbc726107	-0.014793641
147	0xbcbab8c5	-0.022793183
148	0x3c72096e	0.014772756
149	0x3d54279d	0.05179559
150	0x3b9decf7	0.004819508
151	0xbc702a5d	-0.014658538
152	0x3c90f3ff	0.017694471
153	0xbd563f0d	-0.052306224
154	0xbcc6dafb	-0.02427434
155	0xbd8b0b71	-0.06789292
156	0x3cf870f5	0.0303273
157	0xb90f23e0	-0.00013650907
158	0xbca96ae8	-0.02068086
159	0x3c631e1e	0.013862161
160	0x3e1749bd	0.14774223
161	0x3d9d6c37	0.07686656
162	0xbd2eb611	-0.0426541
163	0x3ed7438f	0.4204373
164	0xbd8210b4	-0.06350842
165	0x3dcc9785	0.099898376
166	0xbe8518f0	-0.25995588
167	0x3da19c32	0.0789112
168	0x3d965771	0.07340897
169	0x3d726cbd	0.059185732
170	0x3cc231ec	0.023705445
171	0x3d8a16b5	0.06742612
172	0xbd1b9b51	-0.03798992
173	0xbca2d709	-0.019877927
174	0xbe4c7a37	-0.19968496
175	0xbe3a7144	-0.1820727
176	0xbd534230	-0.051576793
177	0x3da2b20e	0.079441175
178	0x3cd7dfcb	0.02635183
179	0xbd338f56	-0.043837868
180	0xbb687859	-0.0035472123
181	0xbc3701eb	-0.011169891
182	0x3d6aa77a	0.057288624
183	0x3c8b9144	0.017037041
184	0xbce18953	-0.027531302
185	0xbca9e349	-0.02073826
186	0xbcdb38de	-0.026760515
187	0xbd081e9d	-0.03323232
188	0xbb834c29	-0.0040068817
189	0x3c8154b0	0.015787452
190	0x3d900909	0.07032973
191	0x3d1a4dae	0.037671737
192	0xbe030e7c	-0.12798494
193	0x3e961da7	0.29319498
194	0x3e1daf50	0.15398908
195	0xbd80c18f	-0.06286918
196	0x3e1544e3	0.1457706
197	0x3aa2e4c3	0.0012427795
198	0x3caf86e0	0.021426618
199	0xbdc5c2eb	-0.09656318
200	0x3dbac972	0.09120454
201	0x3d4b69c7	0.049661424
202	0xbe18397d	-0.1486568
203	0x3e454a9a	0.1926674
204	0x3dc3bbb0	0.09557283
205	0x3e2361a6	0.15955219
206	0xbbd2875b	-0.006424827
207	0x3c66bb06	0.014082676
208	0x3dc08361	0.094000585
209	0x3d5d7a59	0.054071758
210	0x3c38e9f2	0.011286246
211	0x3e918d00	0.28427887
212	0xbdc07c03	-0.09398653
213	0x3b5b4d71	0.0033462907
214	0xbcf469ad	-0.029835546
215	0x3deb8deb	0.11501678
216	0xbc0bc7ca	-0.00853152
217	0x3be1eb96	0.006894539
218	0xbb122e7b	-0.0022305537
219	0x3d0d5ebd	0.034514178
220	0xbcd9ce6a	-0.026587684
221	0xbd1c7ba1	-0.03820384
222	0xbda6849d	-0.08130763
223	0xbd209604	-0.039205566
224	0xbcbfd23a	-0.023415674
225	0xbd30185a	-0.042991973
226	0xbd59cd8b	-0.053174537
227	0xbd68c7f6	-0.056831323
228	0xbc896e87	-0.016776336
229	0xbdb6ccab	-0.08925756
230	0x3d2d31a0	0.042283654
231	0x3c060c1d	0.008181599
232	0xbd597703	-0.053092014
233	0xbd3a2e5b	-0.045454364
234	0xbcb48173	-0.022034382
235	0xbbe2d956	-0.006922881
236	0xbcbd9b51	-0.02314535
237	0xbc6f624b	-0.014610837
238	0x3cd237c2	0.025661353
239	0x3c22a8c2	0.00992793
240	0x3c428991	0.011873619
241	0xbbabc61b	-0.005242122
242	0xbb0723e7	-0.0020620765
243	0xbc67f29e	-0.014156966
244	0x3bb6a668	0.0055740364
245	0xbb54be15	-0.003246193
246	0x3c334458	0.010941587
247	0xbb5b5ee0	-0.0033473298
248	0x3c2cbf6f	0.010543688
249	0xbc1de440	-0.009636939
250	0x3b8feb7a	0.0043920847
251	0xbc96da95	-0.018414775
252	0x3c0a85a0	0.00845471
253	0xbbcce1b4	-0.006252492
254	0x3ca05f42	0.019576672
255	0x3ceb7f93	0.028747356

gc1.bias f4 [16]
0	0x3e98cba1	0.29842857
1	0x3e463393	0.19355612
2	0x3d725f26	0.059172772
3	0x3ed6844a	0.41897804
4	0x3e36413b	0.17798321
5	0x3e8910b5	0.2677056
6	0xbb236a72	-0.0024935273
7	0x3e95cce1	0.29257873
8	0x3e6b006c	0.2294938
9	0xbd24b5fe	-0.040212624
10	0xbdebbb2f	-0.11510312
11	0x3e3a3dec	0.18187684
12	0x3d46bd8d	0.048520613
13	0xbb851b08	-0.0040620603
14	0x3e90d9e9	0.28291252
15	0x3e8c3ed2	0.27391678

gc2.weight f4 [16, 7]
0	0xbf028c6a	-0.50995505
1	0x3ddc00f3	0.107423685
2	0x3f04075e	0.5157374
3	0xbf02abfc	-0.5104368
4	0x3eeb7386	0.45986575
5	0xbf1b7c3a	-0.6073643
6	0x3ef375ed	0.47550908
7	0x3ea73dca	0.3266433
8	0xbf4b88a9	-0.795054
9	0x3eb589e5	0.35456768
10	0x3e6cc078	0.23120296
11	0xbf2a107a	-0.6643139
12	0x3daad02d	0.08340488
13	0xbf101d9f	-0.562952
14	0xbf119f60	-0.5688381
15	0x3f39893f	0.72475046
16	0x3f002d73	0.5006935
17	0x3f1fd6ee	0.6243733
18	0xbf3e88af	-0.7442731
19	0x3ebdf740	0.371027
20	0xbe92473e	-0.28569978
21	0xbf33f072	-0.70288765
22	0x3e7e3391	0.24824359
23	0x3f25e453	0.6480152
24	0xbec1f2bf	-0.37880513
25	0x3eb4c9e7	0.3531029
26	0xbf0a037a	-0.53911555
27	0xbf482dc9	-0.7819486
28	0x3f01924a	0.50613844
29	0xbf23307e	-0.6374587
30	0xbf28ba0a	-0.65908873
31	0xbf0fa176	-0.56105745
32	0xbf2c2115	-0.6723798
33	0x3f08d6c2	0.53452694
34	0x3ece52f8	0.40297675
35	0x3ea788af	0.3272147
36	0xbf2b2e94	-0.6686795
37	0x3f025cfb	0.50923127
38	0xbf1d90da	-0.6154915
39	0xbf2104b7	-0.6289782
40	0xbf6fdf92	-0.93700516
41	0x3f21b655	0.6316884
42	0xbec78890	-0.38971376
43	0xbf180614	-0.59384274
44	0xbee79ec9	-0.4523833
45	0x3f4da6f1	0.8033286
46	0xbe53186a	-0.20614782
47	0x3e10e9e8	0.14151728
48	0x3f29218d	0.6606682
49	0xbeeac299	-0.4585159
50	0xbef17c9c	-0.47165382
51	0x3eeff561	0.46866897
52	0x3f0b88f5	0.54505855
53	0x3ecf86df	0.40532586
54	0xbe3c1ec9	-0.18371119
55	0xbeb3cc6d	-0.35116902
56	0xbee98a8d	-0.45613518
57	0x3ea2d91c	0.31806266
58	0x3ea253e6	0.31704634
59	0xbf2e205b	-0.6801812
60	0xbf30154e	-0.6878251
61	0x3e4d1037	0.20025717
62	0x3eb16a03	0.34651193
63	0x3ed21601	0.41032413
64	0xbf337d88	-0.7011342
65	0xbe9eeab3	-0.31038436
66	0xbecf3eba	-0.40477544
67	0x3f25e0ba	0.6479603
68	0x3de1b1fa	0.110202745
69	0xbf3ed2f7	-0.74540657
70	0xbf81d0d9	-1.014186
71	0x3ec3d48b	0.38248095
72	0xbf216bf1	-0.6305533
73	0xbf2202c8	-0.63285494
74	0x3f11fe13	0.5702831
75	0x3ea577e0	0.3231802
76	0x3e9f1420	0.31070042
77	0x3ed07461	0.4071379
78	0x3ef34bf7	0.47518894
79	0xbf52584e	-0.8216599
80	0xbf104eb8	-0.56370115
81	0x3ee4b678	0.44670463
82	0x3eeaa86e	0.45831627
83	0xbf4aa2d3	-0.791547
84	0x3e912202	0.28346258
85	0x3f32ce60	0.69846153
86	0xbf008cd8	-0.5021491
87	0xbeda53b6	-0.4264199
88	0xbf611ce1	-0.8793469
89	0xbedd0094	-0.43164504
90	0x3ec96823	0.39337263
91	0x3ec786f3	0.38970146
92	0xbf28445c	-0.6572931
93	0xbedc3186	-0.43006533
94	0xbeaa2845	-0.33233848
95	0xbf06336c	-0.52422214
96	0x3efcf27c	0.4940375
97	0xbd44eabd	-0.048075426
98	0x3f2e75c7	0.68148464
99	0xbf045395	-0.51690036
100	0xbf2f6b98	-0.6852355
101	0x3f15dbb3	0.5853836
102	0x3f20347a	0.6258007
103	0xbf4438c2	-0.76649106
104	0x3ee5eb0c	0.4490589
105	0xbea07392	-0.31338173
106	0x3ec6d043	0.38830766
107	0xbf190f26	-0.5978874
108	0x3f3e576f	0.74352163
109	0x3bf0dbdc	0.007350428
110	0x3eb90664	0.36137688
111	0x3f05b122	0.5222341

gc2.bias f4 [7]
0	0x3e00ffc6	0.1259757
1	0x3e0cea20	0.13761187
2	0x3ef002aa	0.46877033
3	0x3e5a2bae	0.21305725
4	0x3ee6837a	0.45022184
5	0x3e0a7de4	0.13524586
6	0x3c924009	0.0178528
